…
WARNING:tensorflow:From /home/ubuntu/anaconda3/lib/python3.6/site-packages/tensorflow/python/util/deprecation.py:497: calling conv1d (from tensorflow.python.ops.nn_ops) with data_format=NHWC is deprecated and will be removed in a future version.
Instructions for updating:
`NHWC` for data_format is deprecated, use `NWC` instead
__________________________________________________________________________________________________
Layer (type)                    Output Shape         Param #     Connected to                     
==================================================================================================
app (InputLayer)                (None, 1)            0                                            
__________________________________________________________________________________________________
channel (InputLayer)            (None, 1)            0                                            
__________________________________________________________________________________________________
device (InputLayer)             (None, 1)            0                                            
__________________________________________________________________________________________________
os (InputLayer)                 (None, 1)            0                                            
__________________________________________________________________________________________________
hour (InputLayer)               (None, 1)            0                                            
__________________________________________________________________________________________________
day (InputLayer)                (None, 1)            0                                            
__________________________________________________________________________________________________
wday (InputLayer)               (None, 1)            0                                            
__________________________________________________________________________________________________
qty (InputLayer)                (None, 1)            0                                            
__________________________________________________________________________________________________
ip_app_count (InputLayer)       (None, 1)            0                                            
__________________________________________________________________________________________________
ip_app_os_count (InputLayer)    (None, 1)            0                                            
__________________________________________________________________________________________________
embedding_1 (Embedding)         (None, 1, 50)        38450       app[0][0]                        
__________________________________________________________________________________________________
embedding_2 (Embedding)         (None, 1, 50)        25050       channel[0][0]                    
__________________________________________________________________________________________________
embedding_3 (Embedding)         (None, 1, 50)        211200      device[0][0]                     
__________________________________________________________________________________________________
embedding_4 (Embedding)         (None, 1, 50)        47750       os[0][0]                         
__________________________________________________________________________________________________
embedding_5 (Embedding)         (None, 1, 50)        1200        hour[0][0]                       
__________________________________________________________________________________________________
embedding_6 (Embedding)         (None, 1, 50)        500         day[0][0]                        
__________________________________________________________________________________________________
embedding_7 (Embedding)         (None, 1, 50)        200         wday[0][0]                       
__________________________________________________________________________________________________
embedding_8 (Embedding)         (None, 1, 50)        2184650     qty[0][0]                        
__________________________________________________________________________________________________
embedding_9 (Embedding)         (None, 1, 50)        2800800     ip_app_count[0][0]               
__________________________________________________________________________________________________
embedding_10 (Embedding)        (None, 1, 50)        1161650     ip_app_os_count[0][0]            
__________________________________________________________________________________________________
concatenate_1 (Concatenate)     (None, 1, 500)       0           embedding_1[0][0]                
                                                                 embedding_2[0][0]                
                                                                 embedding_3[0][0]                
                                                                 embedding_4[0][0]                
                                                                 embedding_5[0][0]                
                                                                 embedding_6[0][0]                
                                                                 embedding_7[0][0]                
                                                                 embedding_8[0][0]                
                                                                 embedding_9[0][0]                
                                                                 embedding_10[0][0]               
__________________________________________________________________________________________________
spatial_dropout1d_1 (SpatialDro (None, 1, 500)       0           concatenate_1[0][0]              
__________________________________________________________________________________________________
conv1d_1 (Conv1D)               (None, 1, 100)       200100      spatial_dropout1d_1[0][0]        
__________________________________________________________________________________________________
flatten_1 (Flatten)             (None, 500)          0           spatial_dropout1d_1[0][0]        
__________________________________________________________________________________________________
flatten_2 (Flatten)             (None, 100)          0           conv1d_1[0][0]                   
__________________________________________________________________________________________________
concatenate_2 (Concatenate)     (None, 600)          0           flatten_1[0][0]                  
                                                                 flatten_2[0][0]                  
__________________________________________________________________________________________________
dense_1 (Dense)                 (None, 1000)         601000      concatenate_2[0][0]              
__________________________________________________________________________________________________
dropout_1 (Dropout)             (None, 1000)         0           dense_1[0][0]                    
__________________________________________________________________________________________________
dense_2 (Dense)                 (None, 1000)         1001000     dropout_1[0][0]                  
__________________________________________________________________________________________________
dropout_2 (Dropout)             (None, 1000)         0           dense_2[0][0]                    
__________________________________________________________________________________________________
dense_3 (Dense)                 (None, 1)            1001        dropout_2[0][0]                  
==================================================================================================
Total params: 8,274,551
Trainable params: 8,274,551
Non-trainable params: 0
__________________________________________________________________________________________________
Epoch 1/2
2018-04-12 07:18:55.491233: I tensorflow/core/platform/cpu_feature_guard.cc:140] Your CPU supports instructions that this TensorFlow binary was not compiled to use: AVX2 FMA
…
